…
    layers.Reshape((-1, 32, 512)),
    layers.Conv2D(80, 1, padding=&quot;SAME&quot;),
    layers.Softmax(-1)
])

print(model.summary())

model.compile(tf.optimizers.RMSprop(0.001), ctc_cost)
</code></pre>
<p><strong>Error:</strong></p>
<p><em>tensorflow.python.framework.errors_impl.InvalidArgumentError: squeeze_dims[0] not in [0,0). for 'loss/softmax_loss/Squeeze' (op: 'Squeeze') with input shapes: []</em></p>
<p><strong>Model:</strong></p>
<pre><code>Layer (type)                 Output Shape              Param #
=================================================================
conv2d (Conv2D)              (None, 32, 128, 32)       832
batch_normalization (BatchNo (None, 32, 128, 32)       128
activation (Activation)      (None, 32, 128, 32)       0
max_pooling2d (MaxPooling2D) (None, 16, 64, 32)        0
conv2d_1 (Conv2D)            (None, 16, 64, 64)        51264
batch_normalization_1 (Batch (None, 16, 64, 64)        256
activation_1 (Activation)    (None, 16, 64, 64)        0
max_pooling2d_1 (MaxPooling2 (None, 8, 32, 64)         0
conv2d_2 (Conv2D)            (None, 8, 32, 128)        73856
batch_normalization_2 (Batch (None, 8, 32, 128)        512
activation_2 (Activation)    (None, 8, 32, 128)        0
max_pooling2d_2 (MaxPooling2 (None, 8, 16, 128)        0
conv2d_3 (Conv2D)            (None, 8, 16, 128)        147584
batch_normalization_3 (Batch (None, 8, 16, 128)        512
activation_3 (Activation)    (None, 8, 16, 128)        0
max_pooling2d_3 (MaxPooling2 (None, 8, 8, 128)         0
conv2d_4 (Conv2D)            (None, 8, 8, 256)         295168
batch_normalization_4 (Batch (None, 8, 8, 256)         1024
activation_4 (Activation)    (None, 8, 8, 256)         0
max_pooling2d_4 (MaxPooling2 (None, 8, 4, 256)         0
reshape (Reshape)            (None, 32, 256)           0
bidirectional (Bidirectional (None, 32, 512)           1050624
bidirectional_1 (Bidirection (None, 32, 512)           1574912
reshape_1 (Reshape)          (None, None, 32, 512)     0
conv2d_5 (Conv2D)            (None, None, 32, 80)      41040     
softmax (Softmax)            (None, None, 32, 80)      0
</code></pre>
<p><strong>Here is the tensorflow documentation I was referencing:</strong></p>
<p><a href=""https://www.tensorflow.org/api_docs/python/tf/keras/backend/ctc_batch_cost"" rel=""nofollow noreferrer"">https://www.tensorflow.org/api_docs/python/tf/keras/backend/ctc_batch_cost</a></p>
…
