…
57114360,"TypeError: float() argument must be a string or a number, not 'builtin_function_or_method'","<p>I am running a CNN that check for images but does not classify. In fact, the output layer is a dense layer that have as argument the size of the images in the labels in 1d.</p>

<p>As shown below in the code, I am using model.fit_generator() instead of model.fit and when it comes to start training the model the following error comes up:</p>

<p>TypeError: float() argument must be a string or a number, not 
  'builtin_function_or_method'</p>

<p>I am not really getting why this is happening. 
Here attached is the summary of the model:</p>

<hr>

<h1>Layer (type)                 Output Shape              Param #</h1>

<p>conv2d_4 (Conv2D)            (None, 26, 877, 32)       544       </p>

<hr>

<p>activation_5 (Activation)    (None, 26, 877, 32)       0         </p>

<hr>

<p>max_pooling2d_4 (MaxPooling2 (None, 13, 438, 32)       0         </p>

<hr>

<p>conv2d_5 (Conv2D)            (None, 12, 437, 16)       2064      </p>

<hr>

<p>activation_6 (Activation)    (None, 12, 437, 16)       0         </p>

<hr>

<p>max_pooling2d_5 (MaxPooling2 (None, 6, 218, 16)        0         </p>

<hr>

<p>conv2d_6 (Conv2D)            (None, 5, 217, 8)         520       </p>

<hr>

<p>activation_7 (Activation)    (None, 5, 217, 8)         0         </p>

<hr>

<p>max_pooling2d_6 (MaxPooling2 (None, 2, 108, 8)         0         </p>

<hr>

<p>activation_8 (Activation)    (None, 2, 108, 8)         0         </p>

<hr>

<p>flatten_2 (Flatten)          (None, 1728)              0         </p>

<hr>

<p>dropout_2 (Dropout)          (None, 1728)              0         </p>

<hr>

<p>dense_2 (Dense)              (None, 19316)             33397364  </p>

<p>=================================================================</p>

<p>Total params: 33,400,492
Trainable params: 33,400,492
Non-trainable params: 0</p>

<hr>

<p>Any suggestions ? 
Thanks a lot in advance!</p>

<p>I have already looked up many of the online forums/websites but I don't seem to find one that suits my case. </p>

<pre><code>def generator(data_arr, batch_size = 10):

num = len(data_arr) 
…
                    validation_steps = len(val_data))
</code></pre>
","I am running a CNN that check for images but does not classify. In fact, the output layer is a dense layer that have as argument the size of the images in the labels in 1d. As shown below in the code, I am using model.fit_generator() instead of model.fit and when it comes to start training the model the following error comes up: TypeError: float() argument must be a string or a number, not 'builtin_function_or_method' I am not really getting why this is happening. Here attached is the summary of the model: conv2d_4 (Conv2D) (None, 26, 877, 32) 544 activation_5 (Activation) (None, 26, 877, 32) 0 max_pooling2d_4 (MaxPooling2 (None, 13, 438, 32) 0 conv2d_5 (Conv2D) (None, 12, 437, 16) 2064 activation_6 (Activation) (None, 12, 437, 16) 0 max_pooling2d_5 (MaxPooling2 (None, 6, 218, 16) 0 conv2d_6 (Conv2D) (None, 5, 217, 8) 520 activation_7 (Activation) (None, 5, 217, 8) 0 max_pooling2d_6 (MaxPooling2 (None, 2, 108, 8) 0 activation_8 (Activation) (None, 2, 108, 8) 0 flatten_2 (Flatten) (None, 1728) 0 dropout_2 (Dropout) (None, 1728) 0 dense_2 (Dense) (None, 19316) 33397364 ================================================================= Total params: 33,400,492 Trainable params: 33,400,492 Non-trainable params: 0 Any suggestions ? Thanks a lot in advance! I have already looked up many of the online forums/websites but I don't seem to find one that suits my case.",https://stackoverflow.com/questions/57114360,11782908,Inadequate Examples
57133866,"How to fix:""Expected shapes TensorShape([Dimension(None), Dimension(785)]) got dataset with shapes TensorShape([Dimension(785)])""","<p>So I am trying to build Fashion-MNIST CNN classifier using tensorflow. and I am getting this dimensionality error.I am a newbie to tensorflow.</p>
…
56967648,Need help in writing the tf.estimator.export.ServingInputReceiver in Tensorflow 2.0.beta1,"<p>I am trying to serve my Keras model, but my model is trained on image of shape <code>(125,125,3)</code> and it expect an input as numpy array. But as I was learning the <code>tf.estimator.export.ServingInputReceiver</code> to pre-process my <code>b64_enoded</code> image to a numpy array and feed my model with it, I am stuck here.</p>

<p>All my model building and pre-processing is done in tensorflow 2.0. So I am  looking for a help to write the <code>tf.estimator.export.ServingInputReceiver</code> function for it.</p>

<p>Model Summary:</p>

<pre><code>Layer (type)                 Output Shape              Param #   
=================================================================
conv2d_a (Conv2D)            (None, 125, 125, 32)      896       
_________________________________________________________________
Activation_a (Activation)    (None, 125, 125, 32)      0         
_________________________________________________________________
MaxPool_a (MaxPooling2D)     (None, 62, 62, 32)        0         
_________________________________________________________________
Conv2d_c (Conv2D)            (None, 62, 62, 64)        18496     
_________________________________________________________________
Activation_c (Activation)    (None, 62, 62, 64)        0         
_________________________________________________________________
MaxPool_b (MaxPooling2D)     (None, 31, 31, 64)        0         
_________________________________________________________________
Conv2d_d (Conv2D)            (None, 31, 31, 128)       73856     
_________________________________________________________________
Activation_d (Activation)    (None, 31, 31, 128)       0         
_________________________________________________________________
MaxPool_c (MaxPooling2D)     (None, 15, 15, 128)       0         
_________________________________________________________________
Flatten (Flatten)            (None, 28800)             0         
_________________________________________________________________
Dense_a (Dense)              (None, 512)               14746112  
_________________________________________________________________
dropout_a (Dropout)          (None, 512)               0         
_________________________________________________________________
Dense_b (Dense)              (None, 512)               262656    
_________________________________________________________________
dropout_b (Dropout)          (None, 512)               0         
_________________________________________________________________
output (Dense)               (None, 1)                 513       
=================================================================
Total params: 15,102,529
Trainable params: 15,102,529
Non-trainable params: 0
</code></pre>

<p>Here is my code :</p>

<pre class=""lang-py prettyprint-override""><code>
def build_serving_inputs(inputs):
    def decode_and_resize(image_str_tensor):
        image = tf.io.decode_base64(image_str_tensor)
        image = tf.image.decode_png(image, channels=3)
…
<p>I also tried to use the <code>tf.nn.ctc_loss</code> function with simple tensors but I do not get how it works.</p>
<p>How could I use the CTC loss for my model in this use case ?</p>
<p>EDIT :</p>
<p>If I remove the <code>CTCLayer</code> this is what I obtain with <code>model.summary()</code> :</p>
<pre><code>Model: &quot;handwriting_recognizer&quot;
__________________________________________________________________________________________________
 Layer (type)                   Output Shape         Param #     Connected to                     
==================================================================================================
 images (InputLayer)            [(None, 256, 64, 1)  0           []                               
                                ]                                                                 
                                                                                                  
 conv2d_1 (Conv2D)              (None, 256, 64, 64)  640         ['images[0][0]']                 
                                                                                                  
 max_pooling2d_1 (MaxPooling2D)  (None, 128, 32, 64)  0          ['conv2d_1[0][0]']               
                                                                                                  
 reshape_1 (Reshape)            (None, 128, 2048)    0           ['max_pooling2d_1[0][0]']        
                                                                                                  
 dense_2 (Dense)                (None, 128, 64)      131136      ['reshape_1[0][0]']              
                                                                                                  
 bidirectional_1 (Bidirectional  (None, 128, 256)    197632      ['dense_2[0][0]']                
 )                                                                                                
                                                                                                  
 labels (InputLayer)            [(None, 21)]         0           []                               
                                                                                                  
 dense_3 (Dense)                (None, 128, 81)      20817       ['bidirectional_1[0][0]']        
                                                                                                  
==================================================================================================
Total params: 350,225
Trainable params: 350,225
Non-trainable params: 0
__________________________________________________________________________________________________
…
    layers.Reshape((-1, 32, 512)),
    layers.Conv2D(80, 1, padding=&quot;SAME&quot;),
    layers.Softmax(-1)
])

print(model.summary())

model.compile(tf.optimizers.RMSprop(0.001), ctc_cost)
</code></pre>
<p><strong>Error:</strong></p>
<p><em>tensorflow.python.framework.errors_impl.InvalidArgumentError: squeeze_dims[0] not in [0,0). for 'loss/softmax_loss/Squeeze' (op: 'Squeeze') with input shapes: []</em></p>
<p><strong>Model:</strong></p>
<pre><code>Layer (type)                 Output Shape              Param #
=================================================================
conv2d (Conv2D)              (None, 32, 128, 32)       832
batch_normalization (BatchNo (None, 32, 128, 32)       128
activation (Activation)      (None, 32, 128, 32)       0
max_pooling2d (MaxPooling2D) (None, 16, 64, 32)        0
conv2d_1 (Conv2D)            (None, 16, 64, 64)        51264
batch_normalization_1 (Batch (None, 16, 64, 64)        256
activation_1 (Activation)    (None, 16, 64, 64)        0
max_pooling2d_1 (MaxPooling2 (None, 8, 32, 64)         0
conv2d_2 (Conv2D)            (None, 8, 32, 128)        73856
batch_normalization_2 (Batch (None, 8, 32, 128)        512
activation_2 (Activation)    (None, 8, 32, 128)        0
max_pooling2d_2 (MaxPooling2 (None, 8, 16, 128)        0
conv2d_3 (Conv2D)            (None, 8, 16, 128)        147584
batch_normalization_3 (Batch (None, 8, 16, 128)        512
activation_3 (Activation)    (None, 8, 16, 128)        0
max_pooling2d_3 (MaxPooling2 (None, 8, 8, 128)         0
conv2d_4 (Conv2D)            (None, 8, 8, 256)         295168
batch_normalization_4 (Batch (None, 8, 8, 256)         1024
activation_4 (Activation)    (None, 8, 8, 256)         0
max_pooling2d_4 (MaxPooling2 (None, 8, 4, 256)         0
reshape (Reshape)            (None, 32, 256)           0
bidirectional (Bidirectional (None, 32, 512)           1050624
bidirectional_1 (Bidirection (None, 32, 512)           1574912
reshape_1 (Reshape)          (None, None, 32, 512)     0
conv2d_5 (Conv2D)            (None, None, 32, 80)      41040     
softmax (Softmax)            (None, None, 32, 80)      0
</code></pre>
<p><strong>Here is the tensorflow documentation I was referencing:</strong></p>
<p><a href=""https://www.tensorflow.org/api_docs/python/tf/keras/backend/ctc_batch_cost"" rel=""nofollow noreferrer"">https://www.tensorflow.org/api_docs/python/tf/keras/backend/ctc_batch_cost</a></p>
…
