…
model.add(MaxPooling2D(pool_size=(2, 2), padding=\'same\', data_format=\'channels_last\',strides=(1, 1)))\nmodel.add(Flatten())\nmodel.add(Dense(1000, activation=""tanh"", kernel_initializer=""uniform""))\nmodel.add(Dense(4, activation=""relu"", kernel_initializer=""uniform""))\n\nmodel.summary()\n</code></pre>\n\n<p>Output:</p>\n\n<pre><code>Model: ""sequential_7""\n_________________________________________________________________\nLayer (type)                 Output Shape              Param #   \n=================================================================\nconv2d_8 (Conv2D)            (None, 32, 201, 1)        896       \n_________________________________________________________________\nmax_pooling2d_2 (MaxPooling2 (None, 32, 201, 1)        0         \n_________________________________________________________________\nconv2d_9 (Conv2D)            (None, 32, 201, 1)        9248      \n_________________________________________________________________\nmax_pooling2d_3 (MaxPooling2 (None, 32, 201, 1)        0         \n_________________________________________________________________\nflatten_1 (Flatten)          (None, 6432)              0         \n_________________________________________________________________\ndense_2 (Dense)              (None, 1000)              6433000   \n_________________________________________________________________\ndense_3 (Dense)              (None, 4)                 4004      \n=================================================================\nTotal params: 6,447,148\nTrainable params: 6,447,148\nNon-trainable params: 0\n_________________________________________________________________\n</code></pre>\n', 'IsAccepted': False, 'CreationDate': 1589634486}, {'QuestionId': 60032337, 'AnswerId': 60033924, 'URL': 'https://stackoverflow.com/questions/60032337/tensorflow-
…
])(x)\nx = layers.GlobalMaxPooling2D()(x)\nout = layers.Dense(10, activation='softmax')(x)\n\nencoder = keras.Model(encoder_input, out, name=&quot;encoder&quot;)\nencoder.summary()\n</code></pre>\n<pre><code>Model: &quot;encoder&quot;\n_________________________________________________________________\nLayer (type)                 Output Shape              Param #   \n=================================================================\ninput_15 (InputLayer)        [(None, 28, 28, 1)]       0         \n_________________________________________________________________\nconv2d_8 (Conv2D)            (None, 26, 26, 16)        160       \n_________________________________________________________________\nconv2d_9 (Conv2D)            (None, 24, 24, 32)        4640      \n_________________________________________________________________\nmax_pooling2d_2 (MaxPooling2 (None, 8, 8, 32)          0         \n_________________________________________________________________\nconv2d_10 (Conv2D)           (None, 6, 6, 32)          9248      \n_________________________________________________________________\nconv2d_11 (Conv2D)           (None, 4, 4, 16)          4624      \n_________________________________________________________________\nglobal_max_pooling2d_2 (Glob (None, 16)                0         \n_________________________________________________________________\ndense_56 (Dense)             (None, 10)                170       \n=================================================================\nTotal params: 18,842\nTrainable params: 18,842\nNon-trainable params: 0\n</code></pre>\n<pre><code>def pre_process(image, label):\n    return (image / 256)[...,None].astype('float32'), \n            tf.keras.utils.to_categorical(label, num_classes=10)\n\n(x, y), (_, _) = tf.keras.datasets.mnist.load_data('mnist')\n</code><
…
