…
57114360,"TypeError: float() argument must be a string or a number, not 'builtin_function_or_method'","I am running a CNN that check for images but does not classify. In fact, the output layer is a dense layer that have as argument the size of the images in the labels in 1d. As shown below in the code, I am using model.fit_generator() instead of model.fit and when it comes to start training the model the following error comes up: TypeError: float() argument must be a string or a number, not 'builtin_function_or_method' I am not really getting why this is happening. Here attached is the summary of the model: conv2d_4 (Conv2D) (None, 26, 877, 32) 544 activation_5 (Activation) (None, 26, 877, 32) 0 max_pooling2d_4 (MaxPooling2 (None, 13, 438, 32) 0 conv2d_5 (Conv2D) (None, 12, 437, 16) 2064 activation_6 (Activation) (None, 12, 437, 16) 0 max_pooling2d_5 (MaxPooling2 (None, 6, 218, 16) 0 conv2d_6 (Conv2D) (None, 5, 217, 8) 520 activation_7 (Activation) (None, 5, 217, 8) 0 max_pooling2d_6 (MaxPooling2 (None, 2, 108, 8) 0 activation_8 (Activation) (None, 2, 108, 8) 0 flatten_2 (Flatten) (None, 1728) 0 dropout_2 (Dropout) (None, 1728) 0 dense_2 (Dense) (None, 19316) 33397364 ================================================================= Total params: 33,400,492 Trainable params: 33,400,492 Non-trainable params: 0 Any suggestions ? Thanks a lot in advance! I have already looked up many of the online forums/websites but I don't seem to find one that suits my case.",https://stackoverflow.com/questions/57114360,11782908.0,1
44141986,Clarification on Tensorflow tensor 
…
