…
out(.5))\n  model.add(Dense(512, activation='relu'))\n  model.add(Dropout(.5))\n  model.add(Dense(128, activation='relu'))\n  model.add(Dropout(.5))\n  model.add(Dense(64, activation='relu'))\n  model.add(Dense(nbout, activation='softmax'))\n  return model\n\nmod=action_model()\nmod.summary()\n</code></pre>\n<p>Output:</p>\n<pre><code>Model: &quot;sequential_3&quot;\n_________________________________________________________________\nLayer (type)                 Output Shape              Param #   \n=================================================================\ntime_distributed_1 (TimeDist (None, 5, 4608)           14714688  \n_________________________________________________________________\ngru_1 (GRU)                  (None, 64)                897408    \n_________________________________________________________________\ndense (Dense)                (None, 1024)              66560     \n_________________________________________________________________\ndropout (Dropout)            (None, 1024)              0         \n_________________________________________________________________\ndense_1 (Dense)              (None, 512)               524800    \n_________________________________________________________________\ndropout_1 (Dropout)          (None, 512)               0         \n_________________________________________________________________\ndense_2 (Dense)              (None, 128)               65664     \n_________________________________________________________________\ndropout_2 (Dropout)          (None, 128)               0         \n_________________________________________________________________\ndense_3 (Dense)              (None, 64)                8256      \n_________________________________________________________________\ndense_4 (Dense)              (None, 3)                 195       \n=================================================================\nTotal params: 16,277,571\nTrainable params: 16,277,571\nNon-trainable params: 0\n_________________________________________________________________\n</code></pre>\n""}], 'has_more': False, 'quota_max': 10000, 'quota_remaining': 9598}"
389,52591291,"{'items': [{'owner': {'reputation': 158, 'user_id': 10240511}, 'down_vote_co
…
trides=(4), padding=""SAME"")\n\nmodel.add(Conv1D(32,250,padding=\'same\',input_shape=(1500,9)))\nmodel.add(MaxPooling1D(2))\nmodel.add(Dropout(0.5))\nmodel.add(BatchNormalization())\nmodel.add(Lambda(conv1d_transpose, name=\'conv1d_transpose\'))\n\n# Display Model \nmodel.summary()\n</code></pre>\n\n<p>Output:</p>\n\n<pre><code>Model: ""sequential""\n    _________________________________________________________________\n    Layer (type)                 Output Shape              Param #   \n    =================================================================\n    conv1d (Conv1D)              (None, 1500, 32)          72032     \n    _________________________________________________________________\n    max_pooling1d (MaxPooling1D) (None, 750, 32)           0         \n    _________________________________________________________________\n    dropout (Dropout)            (None, 750, 32)           0         \n    _________________________________________________________________\n    batch_normalization (BatchNo (None, 750, 32)           128       \n    _________________________________________________________________\n    conv1d_transpose (Lambda)    (100, 1024, 8)            0         \n    =================================================================\n    Total params: 72,160\n    Trainable params: 72,096\n    Non-trainable params: 64\n    _________________________________________________________________\n</code></pre>\n'}], 'has_more': False, 'quota_max': 10000, 'quota_remaining': 9049}"
935,68354367,"{'items': [{'owner': {'reputation': 361, 'user_id': 6133787}, 
…
